…
2024-12-14 20:52:15 - root - INFO: -           lr = 0.0001
2024-12-14 20:52:15 - root - INFO: -           alpha = 2.8
2024-12-14 20:52:15 - root - INFO: -           beta = 2.9
2024-12-14 20:52:15 - root - INFO: -           gamma = 8.0
2024-12-14 20:52:15 - root - INFO: -           lambda1 = 0.02
2024-12-14 20:52:15 - root - INFO: -           lambda2 = 0.01
2024-12-14 20:52:15 - root - INFO: -           droprate = 0.1
2024-12-14 20:52:15 - root - INFO: - print_num = 10
2024-12-14 20:52:15 - root - INFO: - dataset = Caltech101-20
2024-12-14 20:52:18 - root - INFO: - Autoencoder(
  (encoder): Sequential(
    (0): Linear(in_features=254, out_features=1024, bias=True)
    (1): BatchNorm1d(1024, eps=1e-05, momentum=0.1, affine=True, track_running_stats=True)
    (2): ReLU()
    (3): Linear(in_features=1024, out_features=1024, bias=True)
    (4): BatchNorm1d(1024, eps=1e-05, momentum=0.1, affine=True, track_running_stats=True)
    (5): ReLU()
    (6): Linear(in_features=1024, out_features=1024, bias=True)
    (7): BatchNorm1d(1024, eps=1e-05, momentum=0.1, affine=True, track_running_stats=True)
    (8): ReLU()
    (9): Linear(in_features=1024, out_features=128, bias=True)
  )
  (decoder): Sequential(
    (0): Linear(in_features=128, out_features=1024, bias=True)
    (1): BatchNorm1d(1024, eps=1e-05, momentum=0.1, affine=True, track_running_stats=True)
    (2): ReLU()
    (3): Linear(in_features=1024, out_features=1024, bias=True)
    (4): BatchNorm1d(1024, eps=1e-05, momentum=0.1, affine=True, track_running_stats=True)
    (5): ReLU()
    (6): Linear(in_features=1024, out_features=1024, bias=True)
    (7): BatchNorm1d(1024, eps=1e-05, momentum=0.1, affine=True, track_running_stats=True)
    (8): ReLU()
    (9): Linear(in_features=1024, out_features=254, bias=True)
    (10): BatchNorm1d(254, eps=1e-05, momentum=0.1, affine=True, track_running_stats=True)
    (11): ReLU()
  )
)
2024-12-14 20:52:18 - root - INFO: - Adam (
Parameter Group 0
    amsgrad: False
    betas: (0.9, 0.999)
    capturable: False
    differentiable: False
    eps: 1e-08
    foreach: None
    fused: None
    lr: 0.0001
    maximize: False
    weight_decay: 0
)
2024-12-14 20:52:45 - root - INFO: - [2;29mEpoch : 10/100 ===> Reconstruction Loss = 2.0444  ===> Global Consensus Learning Loss = -96.4853 ===> Classifying Consensus Learning Loss = -2.3721e+03 ===> Coding Consensus  Learning Loss = 268.7940 ===> Total Loss = -2.3693e+03[0m
…
