…
2024-12-18 10:02:09 - root - INFO: -           lr = 0.0001
2024-12-18 10:02:09 - root - INFO: -           alpha = 2.6
2024-12-18 10:02:09 - root - INFO: -           beta = 2.2
2024-12-18 10:02:09 - root - INFO: -           gamma = 2.2
2024-12-18 10:02:09 - root - INFO: -           lambda1 = 0.01
2024-12-18 10:02:09 - root - INFO: -           lambda2 = 1.0
2024-12-18 10:02:09 - root - INFO: -           droprate = 0.08
2024-12-18 10:02:09 - root - INFO: - print_num = 10
2024-12-18 10:02:09 - root - INFO: - dataset = Scene_15
2024-12-18 10:02:10 - root - INFO: - Autoencoder(
  (encoder): Sequential(
    (0): Linear(in_features=20, out_features=1024, bias=True)
    (1): BatchNorm1d(1024, eps=1e-05, momentum=0.1, affine=True, track_running_stats=True)
    (2): ReLU()
    (3): Linear(in_features=1024, out_features=1024, bias=True)
    (4): BatchNorm1d(1024, eps=1e-05, momentum=0.1, affine=True, track_running_stats=True)
    (5): ReLU()
    (6): Linear(in_features=1024, out_features=1024, bias=True)
    (7): BatchNorm1d(1024, eps=1e-05, momentum=0.1, affine=True, track_running_stats=True)
    (8): ReLU()
    (9): Linear(in_features=1024, out_features=128, bias=True)
  )
  (decoder): Sequential(
    (0): Linear(in_features=128, out_features=1024, bias=True)
    (1): BatchNorm1d(1024, eps=1e-05, momentum=0.1, affine=True, track_running_stats=True)
    (2): ReLU()
    (3): Linear(in_features=1024, out_features=1024, bias=True)
    (4): BatchNorm1d(1024, eps=1e-05, momentum=0.1, affine=True, track_running_stats=True)
    (5): ReLU()
    (6): Linear(in_features=1024, out_features=1024, bias=True)
    (7): BatchNorm1d(1024, eps=1e-05, momentum=0.1, affine=True, track_running_stats=True)
    (8): ReLU()
    (9): Linear(in_features=1024, out_features=20, bias=True)
    (10): BatchNorm1d(20, eps=1e-05, momentum=0.1, affine=True, track_running_stats=True)
    (11): ReLU()
  )
)
2024-12-18 10:02:10 - root - INFO: - Adam (
Parameter Group 0
    amsgrad: False
    betas: (0.9, 0.999)
    capturable: False
    differentiable: False
    eps: 1e-08
    foreach: None
    fused: None
    lr: 0.0001
    maximize: False
    weight_decay: 0
)
2024-12-18 10:02:21 - root - INFO: - [2;29mEpoch : 10/200 ===> Reconstruction Loss = 1.9884  ===> Global Consensus Learning Loss = -9.1910 ===> Classifying Consensus Learning Loss = -6.3071e+02 ===> Coding Consensus  Learning Loss = 231.6815 ===> Total Loss = -3.9713e+02[0m
…
