…
2024-12-14 11:31:04 - root - INFO: -           lr = 0.0001
2024-12-14 11:31:04 - root - INFO: -           alpha = 3.0
2024-12-14 11:31:04 - root - INFO: -           beta = 3.0
2024-12-14 11:31:04 - root - INFO: -           gamma = 8.0
2024-12-14 11:31:04 - root - INFO: -           lambda1 = 0.1
2024-12-14 11:31:04 - root - INFO: -           lambda2 = 0.1
2024-12-14 11:31:04 - root - INFO: -           droprate = 0.1
2024-12-14 11:31:04 - root - INFO: - print_num = 10
2024-12-14 11:31:04 - root - INFO: - dataset = Caltech101-20
2024-12-14 11:31:07 - root - INFO: - Autoencoder(
  (encoder): Sequential(
    (0): Linear(in_features=1984, out_features=1024, bias=True)
    (1): BatchNorm1d(1024, eps=1e-05, momentum=0.1, affine=True, track_running_stats=True)
    (2): ReLU()
    (3): Linear(in_features=1024, out_features=1024, bias=True)
    (4): BatchNorm1d(1024, eps=1e-05, momentum=0.1, affine=True, track_running_stats=True)
    (5): ReLU()
    (6): Linear(in_features=1024, out_features=1024, bias=True)
    (7): BatchNorm1d(1024, eps=1e-05, momentum=0.1, affine=True, track_running_stats=True)
    (8): ReLU()
    (9): Linear(in_features=1024, out_features=128, bias=True)
  )
  (decoder): Sequential(
    (0): Linear(in_features=128, out_features=1024, bias=True)
    (1): BatchNorm1d(1024, eps=1e-05, momentum=0.1, affine=True, track_running_stats=True)
    (2): ReLU()
    (3): Linear(in_features=1024, out_features=1024, bias=True)
    (4): BatchNorm1d(1024, eps=1e-05, momentum=0.1, affine=True, track_running_stats=True)
    (5): ReLU()
    (6): Linear(in_features=1024, out_features=1024, bias=True)
    (7): BatchNorm1d(1024, eps=1e-05, momentum=0.1, affine=True, track_running_stats=True)
    (8): ReLU()
    (9): Linear(in_features=1024, out_features=1984, bias=True)
    (10): BatchNorm1d(1984, eps=1e-05, momentum=0.1, affine=True, track_running_stats=True)
    (11): ReLU()
  )
)
2024-12-14 11:31:07 - root - INFO: - Adam (
Parameter Group 0
    amsgrad: False
    betas: (0.9, 0.999)
    capturable: False
    differentiable: False
    eps: 1e-08
    foreach: None
    fused: None
    lr: 0.0001
    maximize: False
    weight_decay: 0
)
2024-12-14 11:31:29 - root - INFO: - [2;29mEpoch : 10/100 ===> Reconstruction Loss = 1.2960  ===> Global Consensus Learning Loss = -16.8647 ===> Classifying Consensus Learning Loss = -8.3925e+02 ===> Coding Consensus  Learning Loss = 176.0425 ===> Total Loss = -8.2204e+02[0m
…
