…
2024-12-14 13:03:03 - root - INFO: -           lr = 0.0001
2024-12-14 13:03:03 - root - INFO: -           alpha = 3.0
2024-12-14 13:03:03 - root - INFO: -           beta = 3.0
2024-12-14 13:03:03 - root - INFO: -           gamma = 8.0
2024-12-14 13:03:03 - root - INFO: -           lambda1 = 0.3
2024-12-14 13:03:03 - root - INFO: -           lambda2 = 0.01
2024-12-14 13:03:03 - root - INFO: -           droprate = 0.1
2024-12-14 13:03:03 - root - INFO: - print_num = 10
2024-12-14 13:03:03 - root - INFO: - dataset = NoisyMNIST
2024-12-14 13:03:09 - root - INFO: - Autoencoder(
  (encoder): Sequential(
    (0): Linear(in_features=784, out_features=1024, bias=True)
    (1): BatchNorm1d(1024, eps=1e-05, momentum=0.1, affine=True, track_running_stats=True)
    (2): ReLU()
    (3): Linear(in_features=1024, out_features=1024, bias=True)
    (4): BatchNorm1d(1024, eps=1e-05, momentum=0.1, affine=True, track_running_stats=True)
    (5): ReLU()
    (6): Linear(in_features=1024, out_features=1024, bias=True)
    (7): BatchNorm1d(1024, eps=1e-05, momentum=0.1, affine=True, track_running_stats=True)
    (8): ReLU()
    (9): Linear(in_features=1024, out_features=64, bias=True)
  )
  (decoder): Sequential(
    (0): Linear(in_features=64, out_features=1024, bias=True)
    (1): BatchNorm1d(1024, eps=1e-05, momentum=0.1, affine=True, track_running_stats=True)
    (2): ReLU()
    (3): Linear(in_features=1024, out_features=1024, bias=True)
    (4): BatchNorm1d(1024, eps=1e-05, momentum=0.1, affine=True, track_running_stats=True)
    (5): ReLU()
    (6): Linear(in_features=1024, out_features=1024, bias=True)
    (7): BatchNorm1d(1024, eps=1e-05, momentum=0.1, affine=True, track_running_stats=True)
    (8): ReLU()
    (9): Linear(in_features=1024, out_features=784, bias=True)
    (10): BatchNorm1d(784, eps=1e-05, momentum=0.1, affine=True, track_running_stats=True)
    (11): ReLU()
  )
)
2024-12-14 13:03:09 - root - INFO: - Adam (
Parameter Group 0
    amsgrad: False
    betas: (0.9, 0.999)
    capturable: False
    differentiable: False
    eps: 1e-08
    foreach: None
    fused: None
    lr: 0.0001
    maximize: False
    weight_decay: 0
)
2024-12-14 13:05:00 - root - INFO: - [2;29mEpoch : 10/100 ===> Reconstruction Loss = 30.6193  ===> Global Consensus Learning Loss = -115.9542 ===> Classifying Consensus Learning Loss = -3.0922e+03 ===> Coding Consensus  Learning Loss = 569.5938 ===> Total Loss = -3.0906e+03[0m
…
