…
2024-08-10 22:45:00 - root - INFO: -           lambda2 = 5.0
2024-08-10 22:45:00 - root - INFO: -           droprate = 0.08
2024-08-10 22:45:00 - root - INFO: -           alpha_neg = 3.0
2024-08-10 22:45:00 - root - INFO: -           beta_neg = 3.6
2024-08-10 22:45:00 - root - INFO: -           gamma_neg = 9.5
2024-08-10 22:45:00 - root - INFO: -           threshold = 0
2024-08-10 22:45:00 - root - INFO: -           topk = 0
2024-08-10 22:45:00 - root - INFO: - print_num = 10
2024-08-10 22:45:00 - root - INFO: - dataset = LandUse_21
2024-08-10 22:45:01 - root - INFO: - Autoencoder(
  (encoder): Sequential(
    (0): Linear(in_features=59, out_features=1024, bias=True)
    (1): BatchNorm1d(1024, eps=1e-05, momentum=0.1, affine=True, track_running_stats=True)
    (2): ReLU()
    (3): Linear(in_features=1024, out_features=1024, bias=True)
    (4): BatchNorm1d(1024, eps=1e-05, momentum=0.1, affine=True, track_running_stats=True)
    (5): ReLU()
    (6): Linear(in_features=1024, out_features=1024, bias=True)
    (7): BatchNorm1d(1024, eps=1e-05, momentum=0.1, affine=True, track_running_stats=True)
    (8): ReLU()
    (9): Linear(in_features=1024, out_features=64, bias=True)
  )
  (decoder): Sequential(
    (0): Linear(in_features=64, out_features=1024, bias=True)
    (1): BatchNorm1d(1024, eps=1e-05, momentum=0.1, affine=True, track_running_stats=True)
    (2): ReLU()
    (3): Linear(in_features=1024, out_features=1024, bias=True)
    (4): BatchNorm1d(1024, eps=1e-05, momentum=0.1, affine=True, track_running_stats=True)
    (5): ReLU()
    (6): Linear(in_features=1024, out_features=1024, bias=True)
    (7): BatchNorm1d(1024, eps=1e-05, momentum=0.1, affine=True, track_running_stats=True)
    (8): ReLU()
    (9): Linear(in_features=1024, out_features=59, bias=True)
    (10): BatchNorm1d(59, eps=1e-05, momentum=0.1, affine=True, track_running_stats=True)
    (11): ReLU()
  )
)
2024-08-10 22:45:01 - root - INFO: - Adam (
Parameter Group 0
    amsgrad: False
    betas: (0.9, 0.999)
    capturable: False
    differentiable: False
    eps: 1e-08
    foreach: None
    fused: None
    lr: 0.0001
    maximize: False
    weight_decay: 0
)
2024-08-10 22:45:09 - root - INFO: - [2;29mEpoch : 10/300 ===> Reconstruction Loss = 1.4825  ===> Global Consensus Learning Loss = 12.6788 ===> Classifying Consensus Learning Loss = -7.6891e+02 ===> Coding Consensus  Learning Loss = 120.1799 ===> Total Loss = -1.6641e+02[0m
…
